model.pth (torch, 663572 bytes, 223 tensors)

v_embed_init.atom_embedding_list.0.weight f4 [119, 48]
0	0x3cf1246e	0.029436316
1	0x3db779a7	0.0895875
2	0xbdf2b37c	-0.1185064
3	0xbd80c320	-0.06287217
4	0xbe0161e7	-0.12635003
5	0x3e1f62ba	0.15565005
6	0xbd8ee6fe	-0.06977652
7	0x3d8f3c04	0.06993869
8	0x3d36d146	0.044633172
9	0xbe4045e0	-0.18776655
10	0xbe0901ba	-0.13379565
11	0xbd48c8d9	-0.04901967
12	0xbe169d91	-0.14708544
13	0x3dc871e7	0.0978735
14	0x3df5470e	0.11976443
15	0xba42c033	-0.00074291526
16	0x3cdb5f2e	0.026778784
17	0x3d47d769	0.048789416
18	0x3d77c7d7	0.060493317
19	0xbd23aa88	-0.039957553
20	0xbd91559c	-0.07096407
21	0xbdedc4d4	-0.116098076
22	0x3c0236e6	0.007947659
23	0x3e19e5ee	0.15029117
24	0xbccdf93f	-0.025143264
25	0x3e25b389	0.16181768
26	0x3d8e3e67	0.06945496
27	0xbdcb9047	-0.09939628
28	0x3d9e7097	0.077363186
29	0x3d95e13d	0.073183514
30	0xbdb257cd	-0.08708153
31	0xbd0afb07	-0.033930805
32	0xbca74765	-0.020419786
33	0x3d85517f	0.06509685
34	0x3e184a1d	0.14872022
35	0xbd338cc0	-0.0438354
36	0x3dfcc43f	0.123421185
37	0x3dc8fa3c	0.098133534
38	0xbe27a0b2	-0.16369894
39	0x3e0dc451	0.1384442
40	0xbbd7fdb6	-0.006591524
41	0x3e1747d8	0.147735
42	0x3e152282	0.14563945
43	0xbe3a8b3d	-0.18217178
44	0xbe207d40	-0.15672779
45	0xbc9f6e00	-0.019461632
46	0x3d7e6eb2	0.062117286
47	0xbd02fc6a	-0.031979002
48	0xbe3adc0b	-0.18248002
49	0x3dd32891	0.10310472
50	0xbdddfa96	-0.10838811
51	0x3db03af6	0.08604996
52	0x3e0918b9	0.13388337
53	0xbd82eed7	-0.06393211
54	0x3de9c98e	0.11415397
55	0x3cce7c07	0.025205625
56	0xbd73bc86	-0.05950596
57	0x3c49756d	0.012296063
58	0x3d8b98c5	0.06816248
59	0x3dc6b55b	0.097025596
60	0xbddec117	-0.10876673
61	0x3e1113cc	0.14167708
62	0xbdb799a8	-0.089648545
63	0xbe27331e	-0.16328093
64	0xbda7d033	-0.08194008
65	0xbe2bd67f	-0.16781043
66	0x3d59636b	0.053073328
67	0x3c511106	0.012760406
68	0xbc173aa4	-0.00923029
69	0xbe035cd7	-0.12828384
70	0x3dcca3c8	0.09992176
71	0x3cfe4bcd	0.031042004
72	0xbd42da98	-0.04757175
73	0x3d098dde	0.03358256
74	0x3d88e960	0.06685138
75	0xbde93962	-0.11387898
76	0xbd5f9d64	-0.05459346
77	0xbdb04924	-0.086077005
78	0x3e2bca34	0.16776353
79	0x3d3ff972	0.04686875
80	0xbe127b6c	-0.14304894
81	0x3e0913a8	0.13386405
82	0xbcf68f20	-0.030097544
83	0x3c55bf0f	0.01304604
84	0x3cc8e84f	0.024524836
85	0xbcb559b4	-0.0221375
86	0x3e37bfd8	0.17944276
87	0x3da82749	0.08210618
88	0x3d27280f	0.040809687
89	0xbd8d2195	-0.06891171
90	0x3d32b135	0.04362603
91	0xbe0d52d6	-0.1380113
92	0xbd8636b1	-0.065534
93	0x3dc4d4c5	0.09610895
94	0xbe3f07b8	-0.18655288
95	0xbb9c423c	-0.004768638
96	0xbd9cba22	-0.076526895
97	0x3dc32cd0	0.09530032
98	0xbdedeb12	-0.11617102
99	0x3d06490a	0.0327845
100	0xbd5966f9	-0.053076718
101	0x3e258343	0.16163354
102	0xbcf9e791	-0.030505927
103	0xbe0a0818	-0.1347965
104	0xbd75b274	-0.05998464
105	0x3e04f863	0.12985377
106	0x3d9144ff	0.07093238
107	0x3d2dc344	0.042422548
108	0x3def303a	0.1167912
109	0x3d9529dc	0.07283375
110	0xbcd34e11	-0.02579406
111	0xbdcaa08a	-0.09893902
112	0xbe3b7d08	-0.18309414
113	0x3dbe553f	0.09293603
114	0x3e15f212	0.14643124
115	0xbd92a28b	-0.07159909
116	0xbdaf79e1	-0.085681684
117	0x3ce3eaf2	0.027821992
118	0xbc95e6c3	-0.018298512
119	0x3e156faa	0.14593378
120	0xbaacaeed	-0.001317469
121	0xbbbd105e	-0.0057697734
122	0xbe3376c8	-0.1752578
123	0x3d6896dc	0.056784496
124	0x399e2889	0.0003016631
125	0x3d381f5e	0.04495179
126	0x3deee518	0.1166479
127	0x3dabd39e	0.08389972
128	0x3b61b65a	0.0034440965
129	0xbc744f2c	-0.014911454
130	0xbdc084f3	-0.09400358
131	0x3e2d5764	0.16927868
132	0x3e223c20	0.15843248
133	0xbb2093f7	-0.0024502256
134	0x3e405b9f	0.1878495
135	0x3e28f8d9	0.16501178
136	0x3de45ae8	0.111501515
137	0x3dc6867b	0.09693619
138	0x3d98d402	0.07462312
139	0xbd13c818	-0.036079496
140	0x3c8e55ad	0.017374838
141	0x3e1baced	0.15202685
142	0xbd04ef5e	-0.03245484
143	0x3d84347d	0.06455324
144	0xbd7a8fb9	-0.06117222
145	0x3cfed1ab	0.031105837
146	0x3de174ed	0.1100863
147	0x3df16df2	0.117885485
148	0x3dbdf33f	0.09274911
149	0x3db8b77b	0.09019371
150	0xbd3a617d	-0.04550313
151	0x3e30be08	0.17259991
152	0x3e085f1a	0.13317528
153	0x3e37bf1f	0.17944
154	0xbe1cef2c	-0.15325612
155	0xbdafe894	-0.08589283
156	0xbe212b17	-0.15739094
157	0x3c898d2e	0.016790953
158	0x3e144ec5	0.14483173
159	0xbe04a8aa	-0.12954965
160	0x3d4b30a9	0.049606953
161	0xbb789023	-0.003792771
162	0xbe34b6b7	-0.17647825
163	0xbbf3e6f0	-0.0074433014
164	0xbcb65042	-0.022255067
165	0xbdbc4734	-0.091932684
166	0xbdf241a8	-0.11828929
167	0x3de57ee4	0.11205843
168	0xbc9f58a5	-0.019451449
169	0xbd19dffc	-0.037567124
170	0xbd57da76	-0.052698575
171	0xbcc689b6	-0.024235588
172	0xbd56255e	-0.05228173
173	0xbde88efa	-0.113553956
174	0x3da5a053	0.0808722
175	0xbb37a3e1	-0.0028021263
176	0xbe2d9270	-0.16950393
177	0xbdc2ef29	-0.095182724
178	0xbd1e656f	-0.038670953
179	0xbd941047	-0.07229667
180	0x3d3726b5	0.04471465
181	0x3e359507	0.1773263
182	0xbe0c15ad	-0.13680144
183	0xbb3647df	-0.0027813835
184	0x3e28a60d	0.16469593
185	0xbde247de	-0.11048864
186	0xbe177d91	-0.14793994
187	0x3d4f14c7	0.050556924
188	0xbb10bbee	-0.002208467
189	0xbb22804e	-0.0024795714
190	0x3df3e278	0.1190843
191	0xbe26145d	-0.16218705
192	0xbdec9709	-0.11552245
193	0x3e065e03	0.131218
194	0xbe077d06	-0.13231286
195	0xbcdc7ea2	-0.026915852
196	0x3daa62cc	0.08319625
197	0xbdcd46bd	-0.10023258
198	0xbe1588bf	-0.14602946
199	0xbdee0ec3	-0.11623909
200	0xbe124df8	-0.14287555
201	0xbe284849	-0.16433825
202	0xbd110af4	-0.035410836
203	0xbe349ac6	-0.17637166
204	0xbdf253f2	-0.118324175
205	0x3c61d318	0.013783239
206	0x3e356f26	0.17718181
207	0x3e410734	0.18850404
208	0x3e228b62	0.15873483
209	0x3ccffdc3	0.025389558
210	0x3dfa201f	0.12213158
211	0xbd67289f	-0.056435224
212	0xbdf09915	-0.11747948
213	0x3dc10dc4	0.09426454
214	0x3d90e82a	0.07075532
215	0x3d9291c4	0.07156709
216	0x3dba5004	0.09097293
217	0xbd537582	-0.051625736
218	0x3e14bf34	0.14526063
219	0x3dd47422	0.10373713
220	0xbda8fde6	-0.08251552
221	0x3e0fbaaf	0.14036058
222	0x3d882026	0.06646757
223	0x3bc61168	0.0060445555
224	0x3b9fbf4d	0.0048750998
225	0x3e249fdc	0.16076607
226	0x3b1e53ef	0.0024158915
227	0x3d8c9edf	0.0686624
228	0x3e0af91d	0.13571592
229	0x3c2bf07b	0.010494347
230	0x3e2f87e8	0.17141688
231	0xbde92ae8	-0.11385137
232	0xbc8616f4	-0.016368367
233	0x3c4c5d7a	0.012473458
234	0x3c75f968	0.015013076
235	0xbe0e294e	-0.13882944
236	0x3e37f08b	0.17962854
237	0xbdd30d24	-0.10305241
238	0x3e0a6fdf	0.13519238
239	0xbd9a3078	-0.07528776
240	0x3d9a88ef	0.07545649
241	0xbdd007ac	-0.10157713
242	0xbda85be7	-0.08220654
243	0x3d5c9e56	0.05386194
244	0x3e016969	0.12637867
245	0xbc98397e	-0.018582102
246	0x3d841839	0.064499326
247	0xbdd369ff	-0.103229515
248	0x3d72f175	0.059312303
249	0xbcbb9396	-0.022897523
250	0xbd26babd	-0.04070543
251	0x3dc0469d	0.093884684
252	0xbd8836a0	-0.06651044
253	0xbdeea2bf	-0.11652135
254	0xbd5d62dc	-0.054049358
255	0x3dbcaade	0.09212278

v_embed_init.atom_embedding_list.1.weight f4 [5, 48]
0	0xbcaa3121	-0.02077538
1	0xbe8f45e0	-0.27982998
2	0x3d9fc9fc	0.07802197
3	0xbe0cf7e3	-0.13766436
4	0x3e845a7a	0.25850278
5	0x3ea3f3ee	0.3202204
6	0x3da459e3	0.08024957
7	0xbde5abd7	-0.112144165
8	0xbdbabc81	-0.091179855
9	0x3e819e23	0.2531596
10	0xbd8383fd	-0.06421659
11	0x3e265658	0.16243875
12	0xbe74ece1	-0.23918487
13	0xbd7bf429	-0.061512146
14	0x3e1ca86f	0.15298627
15	0x3e70f32d	0.23530264
16	0xbc96209c	-0.018326096
17	0x3d0f801f	0.035034295
18	0xbdc611a9	-0.09671337
19	0xbe23c9f5	-0.15995009
20	0x3ea3e6a9	0.32011917
21	0xbe133ea3	-0.14379363
22	0xbdf66ff5	-0.12033073
23	0x3e7a2e12	0.24431637
24	0x3e8de9fd	0.2771758
25	0xbde987eb	-0.114028774
26	0xbdfc6ce7	-0.12325459
27	0xbe77fb6e	-0.24217007
28	0x3e237413	0.15962248
29	0xbd86e215	-0.065860905
30	0xbe0f1c74	-0.13975698
31	0xbe8fda57	-0.28096268
32	0xbdcfa986	-0.10139756
33	0x3ddb8149	0.107180186
34	0xbe93def3	-0.28881034
35	0x3e2256f8	0.15853488
36	0xbe827482	-0.25479513
37	0x3ea6a2a5	0.32545963
38	0xbe6d43a5	-0.23170336
39	0x3e9b9805	0.3038942
40	0xbd6f4e9e	-0.058424585
41	0x3e47df5e	0.19518802
42	0xbcadd6ca	-0.021220583
43	0xbe2a933e	-0.16657731
44	0xbd749041	-0.059707884
45	0x3e0cfc6a	0.13768163
46	0x3e392012	0.1807864
47	0x3e9a509f	0.30139634
48	0x3c2baf06	0.010478741
49	0x3e022849	0.1271068
50	0x3e63eb14	0.22257644
51	0xbe0e092b	-0.13870685
52	0xbddf5f74	-0.10906878
53	0x3e1de7ee	0.15420505
54	0xbdaa8265	-0.08325652
55	0x3dc3a68f	0.09553253
56	0x3e15470a	0.1457788
57	0xbd5343e9	-0.051578436
58	0xbdc2708d	-0.094941236
59	0x3e9d0318	0.30666423
60	0x3e06d2ab	0.13166301
61	0xbea73e0d	-0.32664528
62	0xbea1f24f	-0.3163018
63	0xbd622691	-0.05521256
64	0xbe4ef110	-0.20209146
65	0x3e891882	0.2677651
66	0x3e7e5b70	0.24839568
67	0x3e600107	0.21875392
68	0x3e8d9e7a	0.2765997
69	0x3e81891e	0.25299925
70	0x3e8e2d44	0.2776891
71	0x3c4563be	0.012047706
72	0x3e952ca3	0.29135618
73	0x3de55b34	0.11199036
74	0x3e302c0c	0.17204303
75	0xbe2b72ae	-0.16742966
76	0x3e15845c	0.14601272
77	0xbe9097b7	-0.2824075
78	0x3bc7cdd3	0.006097534
79	0xbe3fd906	-0.18735132
80	0x3d012267	0.03152695
81	0x3d0c82a9	0.034304295
82	0xbd13195a	-0.03591285
83	0x3eab5614	0.3346411
84	0xbe9fa7a3	-0.31182584
85	0xbea95f3f	-0.3308048
86	0x3cb353fa	0.02189063
87	0xbe62b7a3	-0.22140364
88	0xbe64ab66	-0.22331008
89	0xbe4e3b6f	-0.2013986
90	0x3e8aca8d	0.2710766
91	0xbe5b3265	-0.21405943
92	0xbe8db484	-0.27676785
93	0x3e771e9c	0.2413277
94	0xbe5d8d3b	-0.21635906
95	0xbd1a739c	-0.03770791
96	0xbe4faf96	-0.20281824
97	0x3dcbf000	0.09957886
98	0x3e947b0e	0.29000133
99	0xbe501fc6	-0.2032462
100	0xbe7a65f3	-0.24452953
101	0x3e106dcb	0.14104383
102	0xbe512e73	-0.20427875
103	0x3e044652	0.1291745
104	0x3e54bf66	0.20776138
105	0x3e827345	0.2547857
106	0x3d3166ef	0.043311056
107	0x3e9e44de	0.30911916
108	0xbdb8169b	-0.08988687
109	0x3e441671	0.19149186
110	0xbdd5c295	-0.10437504
111	0xbe3a4622	-0.18190816
112	0x3dce0faf	0.10061585
113	0x3e3b06f3	0.1826437
114	0x3e220428	0.15821898
115	0x3e6131ca	0.2199165
116	0xbaddcadb	-0.0016921418
117	0x3e0750e5	0.13214453
118	0x3e75d21c	0.24005932
119	0xbe6b784b	-0.22995107
120	0xbd859c5b	-0.06523963
121	0x3e556145	0.20837887
122	0xbd7b4a3a	-0.061350085
123	0x3e91683a	0.2839983
124	0x3e1feb0f	0.15617011
125	0xbe1085f5	-0.141136
126	0x3e872086	0.26392
127	0xbe0644a6	-0.13112125
128	0x3e5fd7b2	0.21859625
129	0x3e872618	0.2639625
130	0x3e5578e0	0.20846891
131	0x3e864529	0.2622464
132	0x3cdd1be5	0.02699084
133	0xbe926e59	-0.28599814
134	0x3e86a70f	0.2629933
135	0x3d046faf	0.032333072
136	0xbe07ba25	-0.13254602
137	0xbd54518b	-0.051835578
138	0xbe4a24eb	-0.19740646
139	0x3e1a7090	0.15082002
140	0xbea5c07a	-0.3237341
141	0x3e1fb7ef	0.15597509
142	0xbea38e57	-0.31944534
143	0xbe279404	-0.16365057
144	0x3e6b3728	0.22970259
145	0xbd52c95b	-0.05146156
146	0x3e6fdc32	0.23423842
147	0x3e88d2d7	0.26723358
148	0xbdd80552	-0.1054789
149	0x3b9d32b1	0.0047973027
150	0xbe82ce72	-0.2554813
151	0xbdd1b5a5	-0.10239724
152	0x3e04b82e	0.12960884
153	0xbdc7aaeb	-0.09749397
154	0x3e8c8b15	0.2744986
155	0x3e38db22	0.18052343
156	0x3e5c4cc5	0.2151366
157	0x3e86d268	0.26332402
158	0x3cb73563	0.022364324
159	0xbc563b85	-0.013075714
160	0xbd880e18	-0.06643313
161	0x3ea060b5	0.31323782
162	0x3e6cdcdf	0.2313113
163	0xbe83615a	-0.2566021
164	0x3dc0f7e6	0.09422283
165	0xbdbd3de6	-0.09240322
166	0x3e91d373	0.28481635
167	0xbe46a08b	-0.1939718
168	0xbe862672	-0.26201206
169	0x3d98c2a5	0.074590005
170	0xbe6bde23	-0.23033957
171	0x3e962807	0.29327413
172	0x3ea03f6e	0.31298393
173	0xbe70b191	-0.23505236
174	0xbd68bbf4	-0.05681987
175	0xbd2f90f0	-0.042862833
176	0xbe9fe77d	-0.312313
177	0xbe826fc9	-0.2547591
178	0x3ea05de8	0.31321645
179	0x3e7d8eb3	0.24761467
180	0xbdf4d0da	-0.11953898
181	0x3e031722	0.12801793
182	0xbd9644f7	-0.07337373
183	0x3d56ce4d	0.052442838
184	0xbcb7bc7a	-0.02242874
185	0x3df21a2e	0.118214
186	0xbe397d77	-0.18114267
187	0x3e94b567	0.2904465
188	0xbd6f3e6a	-0.058409132
189	0x3ea9c71f	0.3315973
190	0xbe3f40c3	-0.18677048
191	0xbd7633a7	-0.060107853
192	0x3e780610	0.24221063
193	0xbe9e7124	-0.30945694
194	0x3d9babdf	0.07601141
195	0x3e1e5b77	0.15464579
196	0xbc7c9b68	-0.015417911
197	0xbe83c7e3	-0.2573844
198	0xbe64dc1d	-0.22349592
199	0x3e253b53	0.16135912
200	0xbea7a96e	-0.32746452
201	0xbe4bf65d	-0.19918199
202	0x3e657179	0.22406568
203	0xbdb08054	-0.08618227
204	0xbea761b1	-0.3269172
205	0xbe10becc	-0.14135283
206	0x3d2ee4c0	0.04269862
207	0xbe0879ee	-0.13327762
208	0xbe2542f5	-0.16138823
209	0xbe44f856	-0.19235358
210	0x3e91d56f	0.2848315
211	0x3e8ece2e	0.27891678
212	0xbe6b7f5e	-0.22997805
213	0x3e627b6b	0.22117393
214	0x3ea48e63	0.32139882
215	0xbe073b4c	-0.13206214
216	0x3e05b41e	0.1305699
217	0xbeab42b8	-0.3344934
218	0x3e8c103f	0.27356145
219	0xbe35dc25	-0.1775976
220	0xbe954760	-0.29156017
221	0xbe54ece2	-0.20793489
222	0xbea7e637	-0.32792827
223	0x3e9940f1	0.2993236
224	0xbe9c076a	-0.30474406
225	0xbe9230fa	-0.2855299
226	0x3dd0bf85	0.101927795
227	0x3e449be4	0.19200093
228	0xbe207734	-0.15670472
229	0x3e25ae38	0.1617974
230	0xbd163a83	-0.036676895
231	0xbe716974	-0.23575383
232	0x3e1b2ad6	0.1515306
233	0x3e2dfc09	0.16990675
234	0xbe9e6a78	-0.30940604
235	0xbe956614	-0.29179442
236	0xbd1fa1de	-0.038972728
237	0xbe86c99c	-0.2632569
238	0xbe82f191	-0.25574926
239	0x3d5744f2	0.052555986

v_embed_init.atom_embedding_list.2.weight f4 [12, 48]
0	0x3da3b027	0.07992583
1	0x3e75915a	0.23981228
2	0xbdab8148	-0.08374268
3	0x3d89056c	0.06690487
4	0xbe42ca5f	-0.19022511
5	0xbe86204e	-0.26196522
6	0xbd8b1ff9	-0.06793208
7	0xbe7f501d	-0.24932905
8	0x3dd36c40	0.103233814
9	0x3e5636f7	0.20919405
10	0x3d8086e4	0.06275728
11	0xbe9abdf8	-0.3022306
12	0x3e0cbc05	0.13743599
13	0x3e91bd92	0.28464943
14	0x3d4a85ef	0.049444135
15	0xbe913e45	-0.2836782
16	0xbd84df4f	-0.06487905
17	0x3e9bfb47	0.30465147
18	0xbe377342	-0.17915061
19	0xbe7a13c3	-0.24421601
20	0x3e71167b	0.23543732
21	0x3e78080a	0.24221817
22	0xbb48307f	-0.0030546484
23	0x3e97f84a	0.29681617
24	0xbe8c29b6	-0.27375573
25	0x3e4b5e8e	0.19860289
26	0xbe984128	-0.2973721
27	0xbdc1558a	-0.094401434
28	0x3e82183d	0.25409117
29	0xbe1fda7b	-0.15610687
30	0xbe700d6d	-0.23442622
31	0x3d74cf56	0.059768043
32	0x3ea12885	0.31476226
33	0xbde7d051	-0.1131903
34	0xbe901ca4	-0.2814685
35	0x3e3a2fbb	0.1818227
36	0x3e838990	0.2569089
37	0xbe520384	-0.20509154
38	0xbe1e8bd1	-0.15483023
39	0x3e1d871d	0.15383573
40	0x3d8b6a58	0.06807393
41	0xbe74076f	-0.2383096
42	0xbd82c6b2	-0.063855544
43	0x3d772440	0.060337305
44	0x3d00277b	0.03128765
45	0x3e6cb2ab	0.23115031
46	0x3e2d6c30	0.16935802
47	0x3d01be30	0.031675518
48	0x3e6ab871	0.22921921
49	0xbe95edb4	-0.29282916
50	0x3d5a80ce	0.053345494
51	0xbb935ea6	-0.004497367
52	0xbe4e7267	-0.20160829
53	0xbd59bc42	-0.053158052
54	0xbdd4de55	-0.10393969
55	0xbe9b9234	-0.30384982
56	0x3cbb1560	0.02283734
57	0x3ea2097a	0.31647855
58	0xbe55f0f7	-0.20892702
59	0xbd088965	-0.033334155
60	0xbd90816b	-0.070559345
61	0xbe374002	-0.17895511
62	0x3e0f327e	0.13984105
63	0xbe9cb5fb	-0.3060759
64	0x3e9eda66	0.31026
65	0xbe8787cc	-0.26470792
66	0xbce77aef	-0.028256861
67	0xbe631307	-0.22175227
68	0xbe557fc8	-0.20849526
69	0x3e73c23c	0.23804563
70	0xbd80d040	-0.062897205
71	0x3e0ebf1b	0.13940088
72	0xbdee858f	-0.11646568
73	0x3b7b6f75	0.0038365994
74	0xbe24b9ad	-0.16086455
75	0x3e89d61e	0.2692117
76	0xbe9fe9f3	-0.31233177
77	0xbc70a531	-0.014687822
78	0x3e88d6ea	0.26726466
79	0xbe634d98	-0.22197568
80	0xbd5e6e1b	-0.054304224
81	0x3d6815eb	0.056661528
82	0x3e9903fa	0.29885846
83	0x3b265c0a	0.002538445
84	0xbe7f68a8	-0.24942267
85	0xbe64c083	-0.22339062
86	0x3d552e0f	0.052045878
87	0x3e8a00b9	0.26953676
88	0xbe9dd698	-0.30827785
89	0xbe768f35	-0.24078067
90	0xbe80ca99	-0.2515457
91	0xbe8b352e	-0.2718901
92	0x3cd9bbff	0.026578901
93	0x3e2e8d40	0.1704607
94	0xbe8bee58	-0.2733028
95	0xbd59bc8a	-0.05315832
96	0x3d96b082	0.07357885
97	0x3db36ad6	0.08760612
98	0x3e0ae23d	0.13562866
99	0xbd9b4a5e	-0.07582544
100	0xbdb37058	-0.08761662
101	0xbe40496c	-0.18778008
102	0xbe91805f	-0.28418252
103	0xbbfef1b0	-0.0077802762
104	0x3dc6bc81	0.09703923
105	0x3d088ce0	0.033337474
106	0x3e80ba2e	0.25142044
107	0x3e99a75f	0.30010507
108	0x3dc8bae4	0.098012716
109	0xbe11c901	-0.14236833
110	0x3e235eb1	0.1595409
111	0x3e0df08c	0.13861293
112	0xbd57dca9	-0.052700672
113	0xbe84e99b	-0.25959477
114	0xbe8f48d1	-0.27985242
115	0x3e85ac9f	0.26108262
116	0xbe62b352	-0.22138718
117	0x3e95742d	0.29190198
118	0xbe8473f2	-0.2586971
119	0xbe18b1d7	-0.1491159
120	0xbd01386b	-0.031547945
121	0x3e957607	0.2919161
122	0x3d4f22da	0.050570346
123	0xbe537f42	-0.20654014
124	0x3e6717ec	0.22567719
125	0x3d9ac502	0.075571075
126	0xbe595122	-0.21222356
127	0x3ea30cf7	0.3184583
128	0x3e888bb9	0.266691
129	0xbc7617ba	-0.015020305
130	0xbc4b33fe	-0.012402533
131	0x3e3afa13	0.18259458
132	0x3cae8aa4	0.021306343
133	0xbd23c5d5	-0.03998359
134	0x3de0d25f	0.10977625
135	0x3e9dd8d8	0.308295
136	0xbd6dbde0	-0.058042407
137	0x3e37ea96	0.17960581
138	0xbe06b498	-0.13154829
139	0xbe8db8e1	-0.27680114
140	0x3cfbe22c	0.030747496
141	0x3c58233b	0.013191993
142	0x3ddc2ce4	0.1075075
143	0xbe90f9c6	-0.28315562
144	0xbe752bba	-0.23942462
145	0x3c4e0abb	0.0125758005
146	0x3dc9ffe0	0.098632574
147	0xbe943a86	-0.289509
148	0xbe75799c	-0.23972172
149	0xbe556e7e	-0.2084293
150	0xbe1b2d45	-0.15153988
151	0x3e7e3d90	0.24828172
152	0x3e42accd	0.19011231
153	0x3e8b4b5a	0.27205926
154	0x3e914d32	0.28379208
155	0x3e326488	0.17421162
156	0xbe37c711	-0.17947032
157	0xbe9aee98	-0.30260158
158	0xbe6ce847	-0.23135482
159	0xbe8ff8b4	-0.28119433
160	0x3e837e12	0.25682122
161	0xbe3216f7	-0.17391573
162	0x3e494290	0.19654298
163	0xbd99ee84	-0.07516196
164	0xbe3f85a3	-0.18703322
165	0x3d37ae3f	0.04484391
166	0xbdc139f2	-0.0943488
167	0xbae972ec	-0.0017810739
168	0x3daf3156	0.08554332
169	0xbe9cb6e3	-0.30608281
170	0xbe99f30e	-0.3006825
171	0x3e973580	0.29533005
172	0x3dc169f1	0.09444035
173	0xbd7ac508	-0.06122306
174	0x3e3aed6f	0.18254636
175	0xbd0865ca	-0.0333002
176	0x3dbba4d1	0.091622956
177	0xbe66338f	-0.22480606
178	0xbe3c4e8b	-0.18389337
179	0x3ddb4342	0.10706188
180	0x3cf36ddc	0.029715471
181	0xbd4ad549	-0.04951981
182	0xbd3eb3e3	-0.046558272
183	0x3e078863	0.13235621
184	0x3e836e06	0.2566988
185	0x3e63919c	0.22223514
186	0xbe2cc5da	-0.1687235
187	0xbe064b1c	-0.1311459
188	0xbd9280ef	-0.071534984
189	0xbdd9d408	-0.10636145
190	0xbd385e94	-0.04501207
191	0xbcd82e0b	-0.026389142
192	0x3e5939f5	0.21213515
193	0xbe53865d	-0.20656724
194	0x3e8e6fc5	0.27819648
195	0x3e77c86d	0.2419755
196	0x3e95f5ef	0.29289195
197	0x3e59f8a6	0.21286258
198	0x3e06954f	0.13142894
199	0xbe7eb5a2	-0.24873975
200	0x3e76c34f	0.24097942
201	0xbe9ee0ac	-0.31030786
202	0x3d7b91a1	0.06141818
203	0x3e9fb774	0.3119465
204	0x3d31d9c8	0.043420583
205	0x3ce4ec14	0.027944602
206	0xbe4fe82e	-0.20303413
207	0xbe89be6a	-0.26903087
208	0x3d2d3b78	0.042293042
209	0x3dee19f9	0.11626048
210	0xbe354252	-0.1770108
211	0x3d0c09e7	0.03418913
212	0x3ca52d68	0.020163253
213	0xbe3d3824	-0.18478447
214	0x3d7ff147	0.06248596
215	0xbe87a500	-0.26493073
216	0x3e3bcb08	0.18339169
217	0xbe481dda	-0.19542637
218	0x3e6f2751	0.23354842
219	0x3e851652	0.25993592
220	0x3e3db93f	0.18527697
221	0xbe686f4e	-0.2269871
222	0x3e5e24ce	0.21693727
223	0x3bc32013	0.0059547513
224	0xbe9b3509	-0.303139
225	0x3e7cf1d7	0.2470163
226	0x3e93e0a9	0.2888234
227	0x3e0e0857	0.13870369
228	0xbe7fa2b7	-0.24964415
229	0xbda96c54	-0.08272615
230	0xbcfe3570	-0.03103134
231	0x3e90f468	0.28311467
232	0xbe8b2770	-0.27178526
233	0xbe66fb04	-0.22556692
234	0x3e2746d6	0.16335616
235	0x3dd8f9ec	0.10594544
236	0xbdbff42b	-0.09372743
237	0xbe89afbd	-0.2689189
238	0xbd12e943	-0.035866987
239	0x3e4b3cd4	0.19847423
240	0x3e8e07c3	0.27740297
241	0xbc1df82a	-0.009641686
242	0xbe3f9171	-0.18707825
243	0x3dc55344	0.09635022
244	0x3e73cb17	0.23807941
245	0xbe434ec3	-0.19073014
246	0x3d93d295	0.072179
247	0x3e320a4e	0.17386743
248	0xbd3d9fd3	-0.046295
249	0xbe88a225	-0.26686206
250	0xbe2915a6	-0.16512164
251	0xbea0e43a	-0.31424123
252	0xbbc4fd79	-0.0060116616
253	0x3e6c6c9c	0.23088306
254	0xbcfd8dff	-0.030951498
255	0x3e6e81e1	0.23291732

v_embed_init.atom_embedding_list.3.weight f4 [12, 48]
0	0x3cb5f658	0.022212192
1	0xbe921c49	-0.28537205
2	0xbdfed683	-0.124432586
3	0xbe883275	-0.26600996
4	0xbde4e74e	-0.1117693
5	0xbcf036af	-0.02932295
6	0xbcdabb47	-0.026700629
7	0xbd37ad0c	-0.044842765
8	0xbcf93fbe	-0.030425902
9	0x3e839cbf	0.25705525
10	0x3e63238b	0.22181527
11	0xbe941a3d	-0.28926268
12	0x3d962cc0	0.07332754
13	0xbe26c5ed	-0.1628644
14	0xbd7dea92	-0.06199128
15	0xbdef6282	-0.11688711
16	0xbe237654	-0.15963107
17	0xbe2e84eb	-0.17042892
18	0xbe9fb5e0	-0.31193447
19	0xbdf5a1fd	-0.119937874
20	0xbd7e8c03	-0.062145244
21	0xbe95935c	-0.2921399
22	0x3dcfd2fe	0.101476654
23	0xbe2ae24a	-0.16687885
24	0xbdba2958	-0.09089917
25	0x3e021247	0.12702285
26	0x3e9c2b9d	0.30502024
27	0x3e1c5626	0.15267238
28	0xbe70833a	-0.23487559
29	0x3e6c26ad	0.23061629
30	0xbd094600	-0.033514023
31	0x3deae6e8	0.11469823
32	0xbe4704e1	-0.19435455
33	0x3e988934	0.29792178
34	0xbe501e4e	-0.2032406
35	0x3e4c2ae0	0.1993823
36	0x3e887362	0.2665053
37	0x3d05c438	0.032657832
38	0x3e7b742c	0.24556035
39	0x3e4112aa	0.18854776
40	0xbd2b555b	-0.04182945
41	0x3d1de418	0.038547605
42	0x3b8d3523	0.004309313
43	0xbd4e4140	-0.050355196
44	0xbe8ef250	-0.27919245
45	0x3e3bf0d2	0.18353584
46	0xbe9ac471	-0.30227998
47	0x3de94482	0.1139002
48	0xbde72e9e	-0.112881884
49	0x3ca46649	0.020068305
50	0xbd8412bb	-0.06448885
51	0xbe3ae93b	-0.18253033
52	0xbddfda65	-0.10930327
53	0xbe909ebd	-0.28246108
54	0xbe3da2f0	-0.18519187
55	0x3e2b4e8d	0.16729183
56	0x3e86ab2d	0.26302472
57	0xbe994809	-0.2993777
58	0xbd91424f	-0.070927255
59	0x3cc68966	0.024235439
60	0xbe3136fd	-0.17306133
61	0x3d6f461e	0.05841648
62	0xbd1d5601	-0.038412098
63	0x3d4f295b	0.05057655
64	0xbe345859	-0.17611827
65	0xbe8bcef8	-0.27306342
66	0xbd02c669	-0.0319275
67	0x3e59c483	0.2126637
68	0x3e8aeb97	0.27132866
69	0x3e7e18fd	0.2481422
70	0x3c7b2fd3	0.015331226
71	0x3e75062e	0.23928139
72	0xbdf81d2e	-0.121149406
73	0x3e6a3261	0.2287078
74	0x3d4715dc	0.04860483
75	0xbe76b1dd	-0.24091287
76	0xbdd8ae19	-0.105800815
77	0x3e8f867a	0.28032285
78	0xbdfce3f0	-0.12348163
79	0xbe9f977c	-0.3117026
80	0x3e9c3fa5	0.30517307
81	0x3dccf21e	0.10007118
82	0x3d89bab9	0.06725068
83	0xbe0f8b18	-0.14017904
84	0x3e912dc5	0.28355232
85	0x3e84ef99	0.25964049
86	0xbe830469	-0.25589302
87	0x3e0e7a7a	0.13913909
88	0x3e95138b	0.29116473
89	0xbe7543a4	-0.23951584
90	0x3dbfb29d	0.0936024
91	0xbe0e9747	-0.13924895
92	0x3e6292d9	0.2212633
93	0x3e5abf81	0.21362115
94	0x3e2b15d9	0.16707553
95	0xbdb3384a	-0.08750971
96	0x3e83f7dd	0.25775042
97	0xbd9d2397	-0.07672804
98	0x3e55dd11	0.20885111
99	0x3e186b0a	0.14884582
100	0xbe839f8d	-0.25707665
101	0xbe4cd3b8	-0.2000264
102	0xbcb39d61	-0.02192563
103	0xbe86f972	-0.26362187
104	0xbda3bccd	-0.07994995
105	0x3e29f879	0.16598691
106	0x3e917a20	0.28413486
107	0xbcf4b4a1	-0.029871287
108	0xbd9724d1	-0.07380069
109	0xbe7256b3	-0.23665886
110	0x3db9fad9	0.090810485
111	0x3d3e6a05	0.046487827
112	0x3e082b87	0.13297854
113	0xbe8aa838	-0.27081466
114	0x3c8a78ca	0.0169033
115	0xbe0a3ebb	-0.13500492
116	0xbe38a0c9	-0.18030085
117	0x3e1d08d7	0.15335403
118	0xbe86b69f	-0.26311204
119	0xbe3fbfa3	-0.18725447
120	0x3e741ebd	0.2383985
121	0xbe5844a7	-0.21119939
122	0x3e5ad005	0.21368416
123	0xbdecc427	-0.115608506
124	0xbe5d39dd	-0.21604104
125	0xbc972a35	-0.018452743
126	0xbe4bd85a	-0.1990675
127	0x3dad7b8f	0.084708326
128	0x3e63fc01	0.222641
129	0xbe751307	-0.2393304
130	0xbe5fbd40	-0.21849537
131	0xbd550cb8	-0.052014083
132	0x3bfe2d73	0.007756883
133	0x3e8ad060	0.27112103
134	0x3e7e15bb	0.24812977
135	0xbe2ffdb5	-0.17186625
136	0x3e572a7e	0.21012303
137	0x3e3bf134	0.1835373
138	0xbe75f88b	-0.24020593
139	0x3e46bd72	0.19408205
140	0x3e9aee00	0.30259705
141	0xbd90982d	-0.07060275
142	0x3e8b08e8	0.27155232
143	0x3e9915ff	0.29899594
144	0x3d9cfc77	0.07665341
145	0x3b87c94d	0.00414387
146	0x3e8786d8	0.26470065
147	0x3e5d4776	0.21609291
148	0x3e977d95	0.29588
149	0xbe502f7e	-0.20330617
150	0x3ddce7b0	0.107863784
151	0x3e482380	0.19544792
152	0xbe5033dd	-0.20332284
153	0x3d51961b	0.051168542
154	0xbe2db4bc	-0.16963476
155	0xbe6f52ce	-0.23371431
156	0x3e9e56c6	0.30925578
157	0xbe82a6b3	-0.25517806
158	0xbe93c0aa	-0.2885793
159	0x3e84ae42	0.25914198
160	0x3e3d16a0	0.18465662
161	0x3d875e94	0.06609836
162	0x3e6b340d	0.22969075
163	0x3c13e8ec	0.009027701
164	0xbdd77da9	-0.10522015
165	0xbd4fd65d	-0.050741542
166	0x3d7a28df	0.061074134
167	0xbe9a51c1	-0.30140498
168	0xbe9193c2	-0.28433043
169	0xbdeb6ece	-0.11495744
170	0x3d1f9e08	0.03896907
171	0x3e55d85f	0.2088332
172	0xbe1ae07d	-0.15124698
173	0xbe88be7d	-0.2670783
174	0xbe943519	-0.2894676
175	0xbb8da0d9	-0.004322153
176	0xbe4af4f1	-0.1982
177	0xbd87d4ee	-0.0663241
178	0xbe50df1e	-0.20397612
179	0x3e145050	0.14483762
180	0xbdd6bc3d	-0.10485122
181	0xbe6286ac	-0.22121686
182	0x3dc5c757	0.09657162
183	0xbc5ab0ac	-0.013347786
184	0x3e4708e6	0.19436988
185	0x3c5ce63d	0.013482627
186	0x3e01ca17	0.12674747
187	0x3dcce5cb	0.10004767
188	0xbe364e34	-0.1780327
189	0x3e82a90e	0.25519603
190	0x3d67a2fb	0.056551915
191	0xbd36fd26	-0.044675015
192	0x3d4e0a90	0.050303042
193	0x3e93539b	0.28774723
194	0x3e67eee8	0.22649729
195	0x3e8780a6	0.26465338
196	0xbe38b68f	-0.1803839
197	0xbd936838	-0.071976125
198	0x3d8ac973	0.06776705
199	0xbd0efc01	-0.0349083
200	0xbd721d83	-0.059110176
201	0x3e6b964d	0.23006554
202	0xbe328163	-0.1743217
203	0xbe0dd5f4	-0.13851148
204	0x3d17fd00	0.037106514
205	0xbe1e7c41	-0.15477087
206	0xbe372bb0	-0.17887759
207	0xbe7b9788	-0.24569523
208	0x3e51b08b	0.20477502
209	0xbe19d6d2	-0.15023354
210	0xbd2ffa78	-0.042963475
211	0x3e52cf0f	0.20586799
212	0xbe9f5941	-0.31122783
213	0xbc3615f7	-0.011113635
214	0xbe13cfb9	-0.14434709
215	0xbe62f230	-0.221627
216	0x3d467cea	0.04845897
217	0x3dc0f6aa	0.094220474
218	0x3e562219	0.20911445
219	0x3ea781f4	0.32716334
220	0x3dd1ea68	0.102497876
221	0xbbee32c2	-0.0072692344
222	0xbe29c553	-0.1657918
223	0xbd9d28ef	-0.07673823
224	0xbe975b12	-0.2956167
225	0xbe954a57	-0.2915828
226	0xbe6c3b68	-0.23069537
227	0x3e5afb06	0.2138482
228	0x3e0e1a4c	0.13877219
229	0x3e93d0ff	0.2887039
230	0x3e518d58	0.20464075
231	0x3e53e5d7	0.20693146
232	0x3d8e1134	0.06936875
233	0x3e1a7889	0.15085043
234	0x3dedc03a	0.1160893
235	0xbe81abf2	-0.25326496
236	0xbe7d681a	-0.24746743
237	0x3e812e14	0.25230467
238	0x3e501b47	0.20322905
239	0xbda99db8	-0.082820356
240	0xbe3b960a	-0.18318954
241	0xbe63556d	-0.22200556
242	0xbe74d6b4	-0.23910028
243	0xbdd1ae73	-0.10238352
244	0x3ce49f3b	0.027907958
245	0x3be579a1	0.0070030247
246	0x3de82d11	0.11336721
247	0x3d1a6709	0.03769592
248	0x3da4a672	0.080395594
249	0x3e745169	0.2385918
250	0x3d9610c6	0.07327418
251	0xbca78b61	-0.020452203
252	0x3e1fbd42	0.1559954
253	0x3ddca486	0.10773568
254	0x3e09eb6d	0.13468714
255	0xbdb4d046	-0.088287875

v_embed_init.atom_embedding_list.4.weight f4 [10, 48]
0	0x3e99ab69	0.30013588
1	0x3e2f0f33	0.17095642
2	0x3de8eedf	0.11373686
3	0xbb42f0c0	-0.002974555
4	0x3e3d7fda	0.18505803
5	0xbdaca12f	-0.08429181
6	0x3cfaaad9	0.030599045
7	0x3e79add3	0.24382715
8	0xbe393359	-0.18085994
9	0x3cb774af	0.022394506
10	0x3e6b451b	0.2297558
11	0x3cccc359	0.024995493
12	0xbe426128	-0.18982375
13	0x3d750bdc	0.059825763
14	0xbd951e33	-0.07281151
15	0xbe8d93b2	-0.27651745
16	0x3c17e3ec	0.009270649
17	0x3c3ad0ec	0.01140235
18	0x3e52d220	0.20587969
19	0xbc54b748	-0.012983151
20	0xbe6ebc65	-0.23314054
21	0x3e8d4ef2	0.27599293
22	0x3d8241a7	0.063601784
23	0xbdc3cdd7	-0.09560745
24	0x3e481a8b	0.19541375
25	0x3e73c854	0.23806888
26	0x3e6d365f	0.23165272
27	0x3e8131b8	0.25233245
28	0xbe06ef0b	-0.13177125
29	0x3e989038	0.2979753
30	0x3e4d53c3	0.20051484
31	0xbe5b21c9	-0.21399607
32	0x3e1fe110	0.15613198
33	0xbe395597	-0.18099056
34	0x3e0c98c7	0.13730155
35	0xbe3916f2	-0.18075159
36	0x3e21a8fd	0.1578712
37	0xbe00ee19	-0.12590827
38	0x3d8fab5b	0.07015105
39	0xbd6b3708	-0.05742553
40	0x3e3028a1	0.17202999
41	0xbb2590b5	-0.0025263254
42	0x3e1d1090	0.1533835
43	0xbe01ca8f	-0.12674926
44	0x3e1e97b2	0.15487555
45	0x3e3562dd	0.17713495
46	0x3cdaf113	0.026726281
47	0xbdc10735	-0.09425203
48	0x3d38e836	0.04514333
49	0xbe9724dc	-0.2952031
50	0xbce343f0	-0.027742356
51	0x3e87b99c	0.26508796
52	0x3e29b90f	0.165745
53	0xbc73a000	-0.01486969
54	0xbe2b19bf	-0.1670904
55	0x3d81b06c	0.06332478
56	0x3e917a4a	0.28413612
57	0x3e1fc823	0.1560369
58	0x3bd822fc	0.0065959673
59	0x3dcf8898	0.10133475
60	0x3cd0fdfd	0.025511736
61	0xbda36fe3	-0.07980325
62	0xbe70209e	-0.23449942
63	0xbe20a1a1	-0.15686657
64	0xbe0d1502	-0.13777545
65	0xbe406d7a	-0.18791762
66	0x3e9f283b	0.3108538
67	0xbe8ea15d	-0.27857485
68	0x3c8978b4	0.016781189
69	0x3ca8f9ef	0.02062699
70	0xbe22a90b	-0.15884797
71	0xbd04d708	-0.032431632
72	0x3dec0c5e	0.11525796
73	0xbe6a213a	-0.22864237
74	0x3dd3f217	0.10348909
75	0xbc4af176	-0.01238667
76	0xbe230737	-0.15920721
77	0xbe7f55fc	-0.24935144
78	0xbd044340	-0.032290697
79	0xbe1be542	-0.15224174
80	0x3ddb6589	0.10712726
81	0xbea23cf2	-0.31687123
82	0x3e79b010	0.24383569
83	0x3e9c02a3	0.30470762
84	0x3cc12df3	0.02358148
85	0xbe62b2e9	-0.22138561
86	0xbe9fd03b	-0.31213555
87	0x3e1679ae	0.14694855
88	0x3dd1f858	0.10252446
89	0x3e88f99c	0.26752937
90	0xbe301f8a	-0.17199531
91	0x3e3e7a1e	0.18601272
92	0xbe0fb0d5	-0.140323
93	0xbe784b0e	-0.24247381
94	0x3cd119fa	0.025525082
95	0xbdc379f3	-0.09544744
96	0x3e1728df	0.14761685
97	0xbe2f85b2	-0.17140844
98	0x3e541f84	0.20715147
99	0xbe6bcc8e	-0.2302725
100	0x3da2295e	0.079180464
101	0x3e576c45	0.21037395
102	0xbdcad26a	-0.099034145
103	0xbe9b27cf	-0.3030381
104	0x3dfc31da	0.12314196
105	0xbe8d69ce	-0.27619785
106	0xbe2d3fc1	-0.16918851
107	0xbe160294	-0.14649421
108	0xbe33401f	-0.17504929
109	0x3e972738	0.2952211
110	0xbe75efa6	-0.240172
111	0x3e7f3689	0.24923147
112	0xbe5987de	-0.21243235
113	0x3e829cd6	0.2551028
114	0xbdd83f6d	-0.105589725
115	0xbd5d5772	-0.054038472
116	0xbe67d6e5	-0.2264057
117	0x3d16bd49	0.03680161
118	0xbe037658	-0.12838113
119	0xbe9b4665	-0.30327144
120	0x3e23d6c9	0.15999903
121	0x3dde547f	0.1085596
122	0xbe55adea	-0.20867124
123	0x3e98153d	0.29703704
124	0xbcce0831	-0.02515039
125	0x3e5573ce	0.20844957
126	0xbdf19d30	-0.11797559
127	0xbea3e35c	-0.320094
128	0xbe1c9282	-0.15290263
129	0xbe8251d7	-0.25453064
130	0x3e96190e	0.2931599
131	0x3e8810b5	0.26575246
132	0xbd66513b	-0.05622981
133	0xbea49d84	-0.32151425
134	0x3e51b620	0.20479631
135	0x3dd692ca	0.104772165
136	0x3e59204b	0.21203725
137	0x3d76f30f	0.060290392
138	0x3e0dbe73	0.13842182
139	0xbcae57c3	-0.021282082
140	0x3ea56254	0.3230158
141	0xbd827e78	-0.06371778
142	0x3e184523	0.14870124
143	0xbe9dfe12	-0.30857903
144	0xbd53fabf	-0.051752802
145	0x3d0ec923	0.034859788
146	0x3e8770e7	0.26453325
147	0x3e2fe971	0.17178895
148	0x3ea20a24	0.31648362
149	0x3d371c78	0.044704884
150	0xbde534b9	-0.11191697
151	0x3c86703d	0.016410941
152	0xbc2b06cf	-0.010438635
153	0x3dbb72a6	0.09152727
154	0x3d830435	0.06397287
155	0xbe0f1307	-0.13972102
156	0x3e101256	0.14069495
157	0x3d18be59	0.037290905
158	0xbe66b540	-0.22530079
159	0x3c64aa9e	0.013956694
160	0xbe683904	-0.22678
161	0xbb60caa7	-0.0034300478
162	0x3db5e24a	0.08881052
163	0xbea574af	-0.32315585
164	0x3e68a59d	0.22719426
165	0xbe13bf87	-0.1442853
166	0xbd6386c7	-0.055548456
167	0xbd9577ec	-0.07298264
168	0x3e80174d	0.25017777
169	0xbe4bb993	-0.1989501
170	0xbea038ed	-0.3129343
171	0xbe950427	-0.2910473
172	0x3e119e2f	0.14220499
173	0xbddfd049	-0.10928399
174	0x3d387402	0.04503251
175	0x3e1f97b8	0.1558522
176	0x3c316bff	0.010828971
177	0x3ea39e67	0.3195679
178	0x3e052ffa	0.13006583
179	0xbe9fd71e	-0.3121881
180	0xbe80b2a8	-0.25136304
181	0xbe948704	-0.2900926
182	0xbe6578c1	-0.22409345
183	0xbda77d9d	-0.08178256
184	0xbdfae536	-0.1225075
185	0xbe9b78c1	-0.30365565
186	0x3e08d585	0.13362701
187	0x3d7c94c2	0.061665304
188	0xbd2f6e88	-0.04283002
189	0x3e02569f	0.12728356
190	0xbdb6a233	-0.08917656
191	0x3ca75863	0.020427888
192	0xbe0c0474	-0.13673574
193	0x3e2f80bf	0.17138956
194	0x3e8215c1	0.25407222
195	0x3d761104	0.06007482
196	0x3e851a6b	0.25996718
197	0x3ddaf269	0.10690767
198	0xbdb973f0	-0.090553164
199	0x3e741fcd	0.23840256
200	0x3d83339c	0.06406328
201	0x3d86398b	0.06553944
202	0x3d0b8ba9	0.034068737
203	0x3e85bb92	0.26119667
204	0xbe51e420	-0.20497179
205	0xbdf3b319	-0.118993945
206	0xbe49cfbd	-0.19708152
207	0xbe58b7f4	-0.21163923
208	0x3e299714	0.16561538
209	0xbe1247c7	-0.14285193
210	0x3d496907	0.049172428
211	0x3e8a2226	0.26979178
212	0x3e2b31ba	0.16718188
213	0x3ce1a90a	0.027546424
214	0x3e8613ad	0.26186886
215	0xbde7b525	-0.113138475
216	0x3e854ff3	0.2603756
217	0x3e978f39	0.29601458
218	0xbea021d1	-0.312758
219	0x3dfe952c	0.12430796
220	0x3e0a115e	0.13483188
221	0x3dcc44a5	0.099740304
222	0x3e8d126d	0.2755312
223	0x3e97bf5e	0.2963819
224	0xbda7bd7c	-0.08190438
225	0x3d5aeacb	0.053446572
226	0xbdd400c3	-0.10351708
227	0xbe898646	-0.26860255
228	0xbc89235f	-0.016740499
229	0x3dc3b324	0.09555653
230	0xbde77e63	-0.11303403
231	0x3e1530dd	0.14569421
232	0xbe911be8	-0.28341603
233	0xbe5765ba	-0.210349
234	0xbe5bb023	-0.2145391
235	0xbb5ac9f2	-0.003338453
236	0x3e533aa3	0.20627837
237	0x3e324d9c	0.17412418
238	0x3e82ea8b	0.25569567
239	0x3e96f213	0.29481563
240	0xbe84b5f9	-0.25920084
241	0x3dcc45e9	0.09974272
242	0xbe3a4986	-0.1819211
243	0xbe749585	-0.23885162
244	0x3e9962e7	0.2995827
245	0xbe88d8df	-0.2672796
246	0xbe90b1ac	-0.28260553
247	0xbe81ebdf	-0.25375268
248	0x3e4f88e7	0.20267068
249	0xbe78dbd1	-0.24302603
250	0x3e0490af	0.12945817
251	0xbe7e2668	-0.24819338
252	0x3daa8335	0.08325807
253	0x3e0c290f	0.13687538
254	0xbe73bea6	-0.23803195
255	0xbd1952d1	-0.037432496

v_embed_init.atom_embedding_list.5.weight f4 [6, 48]
0	0x3dd62f05	0.10458187
1	0xbc353331	-0.011059568
2	0xbe01e429	-0.12684692
3	0xbd67ef52	-0.056624718
4	0x3df7b4c4	0.12095025
5	0xbe2e7b56	-0.17039236
6	0x3ea90aa7	0.3301594
7	0x3e010d39	0.126027
8	0x3e7cf8a8	0.2470423
9	0x3d4dc823	0.050239693
10	0x3df29b2d	0.11846004
11	0xbd8156bc	-0.063153714
12	0xbe003025	-0.12518366
13	0xbd72144c	-0.059101388
14	0xbe69d568	-0.22835314
15	0xbe9f3b0d	-0.3109974
16	0xbd0ac3e5	-0.033878226
17	0x3e57a3c5	0.21058567
18	0x3e05432d	0.13013907
19	0x3ea4fdb1	0.322248
20	0xbd322517	-0.043492403
21	0x3d4a0cfe	0.049328797
22	0x3d552c65	0.05204429
23	0x3e3bd99a	0.18344727
24	0x3e96e05f	0.29468057
25	0xbe7fbe1d	-0.24974866
26	0xbde74b44	-0.11293653
27	0xbcfd46f6	-0.030917626
28	0xbd8d388c	-0.06895551
29	0x3e553271	0.20820023
30	0xbea85bcf	-0.32882544
31	0xbe67c7ec	-0.22634858
32	0xbe5f7938	-0.21823585
33	0x3e106120	0.1409955
34	0xbe82a1fd	-0.25514212
35	0x3d16c8f1	0.036812726
36	0xbd2bbf82	-0.041930683
37	0x3d98a553	0.07453408
38	0xbbc3d9c4	-0.0059768874
39	0x3c3e9b97	0.011633775
40	0x3e769493	0.24080114
41	0x3d829385	0.06375793
42	0x3e23d8a0	0.16000605
43	0xbe70985b	-0.23495619
44	0xbd9f5c2b	-0.077812515
45	0xbe2df1ff	-0.16986845
46	0xbe6e4338	-0.2326783
47	0xbe487b92	-0.19578388
48	0xbdadaaf6	-0.08479874
49	0x3ddbb226	0.107273385
50	0xbdbc1420	-0.09183526
51	0xbe83edd4	-0.25767386
52	0xbe6957f3	-0.22787456
53	0x3d93ec90	0.07222855
54	0x3c912bc0	0.017721057
55	0xbe9b83b0	-0.30373907
56	0x3d89a9c6	0.06721835
57	0x3dcda396	0.10040967
58	0x3e9942da	0.29933816
59	0xbda1fe60	-0.07909846
60	0x3e6d6030	0.23181224
61	0xbe186b88	-0.1488477
62	0x3e933af6	0.2875592
63	0xbe8b9b62	-0.27266985
64	0xbda49430	-0.08036077
65	0xbe912397	-0.28347465
66	0xbe200608	-0.156273
67	0x3de8fa36	0.11375849
68	0x3e1a9f28	0.15099776
69	0x3e5b15fb	0.21395104
70	0x3e8fa2c0	0.28053856
71	0xbdd87876	-0.10569851
72	0xbe55624b	-0.20838277
73	0x3d83ef40	0.06442118
74	0xbe85f70e	-0.2616505
75	0xbe200756	-0.15627798
76	0xbd9f0320	-0.07764268
77	0xbea1c22e	-0.3159346
78	0xbdab69d6	-0.08369796
79	0x3d3719ab	0.044702213
80	0xbdd0cc66	-0.10195236
81	0xbe29413b	-0.1652879
82	0x3c5d2956	0.013498625
83	0xbe2e5916	-0.17026171
84	0xbe1dc926	-0.15408763
85	0xbe518ac6	-0.20463094
86	0xbe01c7a8	-0.12673819
87	0x3cbdc36b	0.023164472
88	0xbe2f229b	-0.17103045
89	0xbe5975a3	-0.21236281
90	0xbe798e13	-0.24370603
91	0xbea102ac	-0.3144735
92	0x3d62c9e0	0.055368304
93	0xbd80f6a0	-0.0629704
94	0x3da3c7cb	0.07997092
95	0xbdf8ddb0	-0.121516585
96	0x3da708c5	0.081559695
97	0x3e71bbf6	0.23606858
98	0x3d38090d	0.044930506
99	0x3e88c502	0.26712805
100	0x3e8e90a0	0.27844715
101	0x3c2cb064	0.010540102
102	0x3e72992f	0.23691247
103	0xbc7fa87e	-0.0156041365
104	0xbe9b6739	-0.3035219
105	0xbd856593	-0.06513514
106	0x3e07aa3e	0.13248536
107	0x3e48f529	0.19624771
108	0x3e2077c1	0.15670682
109	0x3db2a93f	0.087236874
110	0xbe25b739	-0.16183175
111	0x3c65e651	0.0140319625
112	0x3c8f9471	0.017526837
113	0x3dadf745	0.084944285
114	0x3e56de48	0.20983231
115	0xbd6db696	-0.058035456
116	0x3e0f1446	0.13972577
117	0xbea7b2e4	-0.3275367
118	0xbe7ae32b	-0.2450072
119	0xbdd66df4	-0.10470191
120	0x3e79f02a	0.24408022
121	0xbd9851be	-0.07437466
122	0xbe463c80	-0.19359016
123	0x3e89bfb9	0.26904085
124	0xbd81401c	-0.06311056
125	0x3de2a07c	0.11065766
126	0x3e077753	0.13229112
127	0x3ea0ca97	0.31404564
128	0x3d809a5f	0.06279444
129	0xbcfebd05	-0.03109599
130	0x3e4b68d1	0.19864203
131	0xbd2b0b2f	-0.041758712
132	0x3e77b761	0.24191047
133	0x3ea45886	0.32098788
134	0xbd78a65c	-0.060705528
135	0xbe3c709e	-0.18402335
136	0xbdb3f569	-0.08787043
137	0x3e9764da	0.2956913
138	0xbe97d965	-0.29658046
139	0x3dbe6993	0.092974804
140	0x3dd5720d	0.10422144
141	0x3e2e6ee1	0.17034484
142	0xbe872cbd	-0.2640132
143	0x3e59e9e8	0.21280634
144	0x3da59836	0.080856726
145	0xbe295096	-0.16534647
146	0xbe944812	-0.28961235
147	0x3d0e6ab6	0.034769736
148	0x3e8f8fd0	0.28039408
149	0x3e95be98	0.29246974
150	0x3df4d740	0.11955118
151	0x3e98a033	0.29809722
152	0x3e6404d6	0.2226747
153	0x3da09896	0.078416035
154	0xbd9fc30b	-0.07800873
155	0x3e36c0b8	0.17846954
156	0x3ea90982	0.33015066
157	0xbe7ac74b	-0.24490087
158	0xbdb4348b	-0.08799084
159	0xbd21102b	-0.03932206
160	0xbe658c38	-0.2241677
161	0x3e76907b	0.24078552
162	0x3e21d2c6	0.1580306
163	0x3bd5aa56	0.0065205498
164	0xbe299bae	-0.16563293
165	0x3ea7be1b	0.32762226
166	0xbe33a2e3	-0.17542605
167	0xbe9ac830	-0.30230856
168	0xbea016a2	-0.31267267
169	0xbe62a260	-0.22132254
170	0xbe7e2270	-0.24817824
171	0x3e922f63	0.28551778
172	0x3e1a2163	0.15051799
173	0xbe9d1166	-0.30677336
174	0x3e912f52	0.28356415
175	0xbea95303	-0.33071145
176	0x3d6f2deb	0.0583934
177	0xbe1f91fb	-0.15583031
178	0x3e5a9253	0.21344881
179	0xbe34b720	-0.17647982
180	0xbd1fd516	-0.039021574
181	0x3e0580c6	0.13037404
182	0xbdf14f16	-0.117826626
183	0xbdc552f6	-0.09634964
184	0x3dc3a7d6	0.095534965
185	0x3d7ed02b	0.062210243
186	0xbe6ba1f8	-0.23011005
187	0xbe88ec1b	-0.26742634
188	0xbdfc5016	-0.12319963
189	0x3e49d128	0.19708693
190	0x3e48175e	0.19540164
191	0x3eaa107b	0.332157
192	0xbdb70e56	-0.08938281
193	0xbe1d872e	-0.15383598
194	0xbe586eb8	-0.21135986
195	0xbdc80246	-0.097660586
196	0xbc399ed6	-0.011329373
197	0xbe898cf3	-0.26865348
198	0x3e281346	0.16413602
199	0xbe42a5f8	-0.19008625
200	0x3e3d0bf3	0.1846159
201	0x3e0775b6	0.13228497
202	0x3e09182b	0.13388126
203	0xbd238596	-0.03992232
204	0xbe6d0d7e	-0.23149678
205	0x3e8df510	0.2772603
206	0xbe38afb3	-0.18035774
207	0x3e91573b	0.28386864
208	0xbd330e76	-0.043714963
209	0x3e6f972b	0.2339751
210	0xbd5596c0	-0.05214572
211	0xbea5d0d8	-0.32385898
212	0x3ea131e3	0.31483373
213	0xbd34c24b	-0.044130605
214	0x3e0c5a26	0.13706264
215	0xbe738283	-0.23780255
216	0x3e71f768	0.23629534
217	0x3e100910	0.14065957
218	0x3e046ce6	0.12932166
219	0xbe9e5873	-0.30926856
220	0xbe31ad26	-0.17351207
221	0xbb754600	-0.0037425756
222	0xbe4d7dd6	-0.20067534
223	0xbe095620	-0.1341176
224	0xbc7a35ab	-0.0152715845
225	0x3c328956	0.010897001
226	0x3e577810	0.21041894
227	0xbe2b98e6	-0.16757545
228	0xbe98ec6a	-0.2986787
229	0x3ea1a5e6	0.31571883
230	0x3e2e8740	0.17043781
231	0x3da6f946	0.08153014
232	0xbd85d170	-0.06534088
233	0xbe36cebe	-0.17852303
234	0xbcbe2380	-0.023210287
235	0x3e977228	0.29579282
236	0xbe8ecbd8	-0.27889895
237	0x3e4e571e	0.2015042
238	0xbe716d9b	-0.23576967
239	0x3dbcd036	0.092194006
240	0x3e602683	0.21889691
241	0x3c4affab	0.012390058
242	0xbb88ee56	-0.0041788025
243	0x3ddd9406	0.10819249
244	0xbdc08ddb	-0.09402057
245	0x3d6a2e36	0.057172976
246	0x3e8a4848	0.2700827
247	0x3d8b38f0	0.06797969
248	0xbe74af0b	-0.23894899
249	0xbea97da2	-0.33103663
250	0x3e2d6270	0.16932082
251	0xbea3c0e4	-0.319831
252	0x3e8e0580	0.2773857
253	0xbe8374ee	-0.25675148
254	0xbea336ca	-0.31877738
255	0x3e901e76	0.2814824

v_embed_init.atom_embedding_list.6.weight f4 [6, 48]
0	0x3e41d9bd	0.18930717
1	0xbe0f6b40	-0.14005756
2	0x3e86a054	0.26294196
3	0x3d36b3d1	0.04460508
4	0x3e7bcf65	0.24590833
5	0xbe85290e	-0.26007885
6	0xbd883e86	-0.066525504
7	0xbe9ad84c	-0.30243146
8	0x3e2f25c2	0.17104247
9	0x3da83c19	0.08214588
10	0x3e71cc8e	0.23613188
11	0xbd17aecc	-0.037031934
12	0x3e84b2f1	0.2591777
13	0x3e74f88c	0.23922938
14	0x3ea36039	0.3190935
15	0xbe2ea2f5	-0.1705435
16	0x3d98eabd	0.07466648
17	0x3dbdc8fc	0.0926685
18	0x3e7b7610	0.24556756
19	0x3d94852e	0.072519645
20	0xbe9b8d09	-0.3038104
21	0x3e930c41	0.28720286
22	0x3d3c01a6	0.04590001
23	0xbe15cc6b	-0.1462876
24	0xbcc4a25f	-0.024003206
25	0xbe50ba58	-0.20383584
26	0x3e13920a	0.14411178
27	0x3ea58242	0.3232594
28	0x3e6d761c	0.23189586
29	0x3b2ca9aa	0.0026346245
30	0xbea5bf92	-0.3237272
31	0xbe5b802e	-0.21435615
32	0xbe651863	-0.22372584
33	0xbe7174b6	-0.23579678
34	0x3e8d4942	0.27594954
35	0xbe33555d	-0.17513032
36	0x3e13f0c4	0.14447314
37	0xbdcfbaef	-0.10143077
38	0xbbe9b623	-0.007132308
39	0xbea841e5	-0.32862774
40	0x3ddd3e49	0.108028956
41	0x3e5439d8	0.2072519
42	0xbe83e2bd	-0.25758925
43	0xbd8cc8a0	-0.06874204
44	0xbd4c1c3b	-0.04983161
45	0x3e5d1eb2	0.2159374
46	0x3dc791e3	0.097446226
47	0xbe183648	-0.14864457
48	0x3e7b258b	0.2452604
49	0x3d781013	0.060562205
50	0xbe0a8750	-0.1352818
51	0xbe42fcc3	-0.19041733
52	0x3e2d8572	0.16945437
53	0x3e628d9b	0.2212433
54	0x3e92445c	0.2856778
55	0x3e1c591e	0.1526837
56	0x3dbc8d64	0.092066556
57	0xbe9bf39d	-0.304593
58	0x3d00f65a	0.03148494
59	0xbd9120ba	-0.0708632
60	0xbb9a9c66	-0.004718351
61	0x3dca00f2	0.098634616
62	0xbd9e1d07	-0.0772038
63	0xbb038216	-0.002006655
64	0x3e864418	0.26223826
65	0x3dab53f9	0.08365626
66	0x3e4a7869	0.19772495
67	0x3e5b1f53	0.21398668
68	0xbd47aa7a	-0.048746563
69	0x3c7c4f10	0.015399709
70	0xbe844a8e	-0.2583813
71	0xbca07d46	-0.019590985
72	0xbe4e4997	-0.2014526
73	0x3e1ca0fd	0.15295787
74	0xbdfff668	-0.1249817
75	0x3e658d0c	0.22417086
76	0xbe7c5fcd	-0.2464592
77	0x3d88112a	0.06643899
78	0x3d911a6a	0.07085116
79	0x3d098a5d	0.03357922
80	0xbe8366a6	-0.25664252
81	0xbe677156	-0.22601828
82	0x3e9704f5	0.2949597
83	0x3da95cd7	0.08269661
84	0xbe2aef2b	-0.16692798
85	0x3e07dd6f	0.13268064
86	0x3e67f90a	0.22653595
87	0x3dd5194f	0.10405218
88	0xbdd722d8	-0.10504693
89	0x3dce22e3	0.10065248
90	0xbe95df35	-0.29271856
91	0x3e36c520	0.17848635
92	0xbe41ddf1	-0.1893232
93	0xbe7a7b81	-0.24461176
94	0xbcb4a55d	-0.022051508
95	0xbe51903b	-0.20465176
96	0xbe17b204	-0.14814001
97	0xbe256dd1	-0.16155173
98	0x3d7cd3e8	0.061725527
99	0xbd97e466	-0.074166104
100	0x3e88ced9	0.26720312
101	0xbe491bbd	-0.19639488
102	0x3e85ffb2	0.26171643
103	0x3cc107c8	0.02356328
104	0xbce71db6	-0.02821241
105	0x3e931a9d	0.28731242
106	0x3e361d42	0.17784598
107	0xbe74e38e	-0.2391493
108	0x3e2813fd	0.16413875
109	0x3e64537d	0.22297473
110	0xbada53dc	-0.0016657072
111	0x3e4ecb4e	0.20194742
112	0x3de456b9	0.111493535
113	0x3e7a42b9	0.24439515
114	0xbe6a80eb	-0.22900741
115	0xbe9e8745	-0.30962577
116	0xbba02b91	-0.004888006
117	0x3c159e28	0.009131946
118	0xbe96bb77	-0.294399
119	0xbe899c98	-0.26877284
120	0x3e7ae909	0.24502958
121	0xbe853d89	-0.2602351
122	0x3e3be17b	0.18347733
123	0x3e71da3a	0.23618403
124	0xbdcdc6bb	-0.100476705
125	0xbe262166	-0.16223678
126	0xbdd69b43	-0.104788326
127	0x3e84874d	0.25884476
128	0x3e485378	0.19563091
129	0xbe968baa	-0.2940343
130	0xbe8f4efd	-0.2798995
131	0x3e1313e5	0.14363058
132	0xbe8156b0	-0.2526145
133	0xbdb11b53	-0.0864779
134	0xbd8f52f7	-0.06998246
135	0x3e8d9b3a	0.2765749
136	0xbe802e82	-0.25035483
137	0xbd573671	-0.052542154
138	0x3e84a8d4	0.25910056
139	0x3e726b76	0.23673806
140	0xbea5cbfb	-0.32382187
141	0xbe85052c	-0.25980508
142	0x3e25fe55	0.16210301
143	0xbe045550	-0.12923169
144	0x3e6ce271	0.23133256
145	0x3dc9ddb4	0.0985674
146	0x3e773456	0.24141058
147	0xbe147878	-0.1449908
148	0x3d2ab853	0.04167969
149	0xbe7638e7	-0.24045144
150	0xbe913586	-0.28361148
151	0xbde96edb	-0.11398097
152	0x3e9bd53a	0.30436116
153	0x3e769d80	0.24083519
154	0x3e713f53	0.23559313
155	0x3e810276	0.2519719
156	0xbea142fb	-0.31496415
157	0x3e702896	0.23452982
158	0x3e870e2a	0.26377994
159	0xbdb59fcb	-0.08868369
160	0xbe907c13	-0.2821966
161	0xbdb730d4	-0.0894486
162	0x3e881341	0.2657719
163	0xbe292953	-0.1651967
164	0xbe1653c0	-0.14680386
165	0xbe45ba80	-0.19309425
166	0xbe28cee8	-0.16485178
167	0xbdbd29be	-0.09236477
168	0x3d187775	0.037223298
169	0x3e3fc442	0.1872721
170	0x3bf680ac	0.007522663
171	0xbe94a93d	-0.2903537
172	0x3e809d5d	0.2512006
173	0x3b9c325f	0.004766747
174	0xbe021c5f	-0.12706135
175	0xbe83dd96	-0.25754994
176	0x3d5292c2	0.05140949
177	0x3ddebeda	0.10876246
178	0xbe8e7fc7	-0.2783186
179	0xbe8263ad	-0.25466672
180	0x3e381aab	0.17978923
181	0x3de66b7a	0.11250968
182	0xbd853dca	-0.06505926
183	0xbd1509c2	-0.03638626
184	0xbe07e3ee	-0.13270542
185	0x3daa05ae	0.083018646
186	0x3d562076	0.05227705
187	0x3dafd820	0.085861444
188	0x3dca1f8a	0.09869297
189	0x3db92277	0.09039777
190	0x3dc954b1	0.09830607
191	0xbe0ae495	-0.1356376
192	0x3ea4d990	0.32197237
193	0x3e06dc43	0.1316996
194	0xbd900bf7	-0.07033532
195	0x3c66c97c	0.014086124
196	0xbea07bde	-0.31344503
197	0xbe040071	-0.12890793
198	0xbde61002	-0.11233522
199	0x3e118ca9	0.14213814
200	0x3eab8599	0.33500364
201	0xbde28d96	-0.110621616
202	0x3e93b7ef	0.28851268
203	0x3d92cdba	0.071681455
204	0xbe3c8e02	-0.18413547
205	0xbe39e42a	-0.18153444
206	0xbd0d6537	-0.034520354
207	0x3c215806	0.009847647
208	0xbdccc4ef	-0.099984996
209	0x3e27bd9f	0.16380928
210	0x3ea7a7b3	0.32745132
211	0x3dcf4655	0.10120837
212	0x3e74e4e2	0.23915437
213	0x3d20b961	0.03923929
214	0xbdfab763	-0.122420095
215	0x3e828add	0.2549657
216	0x3e9e43e8	0.30911183
217	0xbe5167aa	-0.20449701
218	0xbe2d27c9	-0.16909708
219	0x3e8a694c	0.2703346
220	0x3e14f058	0.14544809
221	0x3e9c6bb5	0.30550924
222	0x3e619e83	0.22033124
223	0x3ea2094d	0.3164772
224	0xbca358f1	-0.019939872
225	0x3ccd96b7	0.02509628
226	0xbe739c0c	-0.23789996
227	0x3d69ad8c	0.057050273
228	0x3e4e746d	0.201616
229	0xbd6cad1a	-0.05778227
230	0x3d309a75	0.04311605
231	0xbe51a55e	-0.20473239
232	0x3e89014f	0.2675881
233	0xbe98aa6f	-0.2981753
234	0xbd3d848b	-0.04626898
235	0x3e9349d5	0.28767267
236	0xbdc428ed	-0.095781185
237	0xbe2b3573	-0.16719608
238	0xbd4e9c52	-0.050442047
239	0xbe2b5533	-0.1673172
240	0xbe3a7b9c	-0.18211216
241	0x3e833f11	0.25634053
242	0x3ddfc248	0.10925728
243	0x3e204d35	0.15654452
244	0xbe8a1ebf	-0.26976582
245	0x3df144d6	0.117807075
246	0xbe05d370	-0.13068938
247	0xbe3f53dc	-0.18684334
248	0xbe24613c	-0.16052717
249	0x3e842ea2	0.25816828
250	0xbe75b416	-0.23994479
251	0xbe31642b	-0.17323367
252	0xbe919dba	-0.28440648
253	0x3e71fff8	0.236328
254	0x3e8c8439	0.27444628
255	0x3dd4e0d0	0.10394442

v_embed_init.atom_embedding_list.7.weight f4 [2, 48]
0	0x3cd650da	0.0261616
1	0x3e8ada64	0.27119744
2	0xbe9954e8	-0.2994759
3	0x3eaa5774	0.33269846
4	0x3dcc82c7	0.09985881
5	0xbe82000e	-0.25390667
6	0xbea216b5	-0.3165795
7	0x3cadad80	0.021200895
8	0xbe2dc43f	-0.16969393
9	0x3eaed397	0.34145805
10	0xbe2ca9e8	-0.16861689
11	0x3e995271	0.2994571
12	0x3e584f6d	0.21124049
13	0xbe6b6a6a	-0.22989812
14	0xbddb8e2a	-0.10720475
15	0x3e6bed24	0.2303968
16	0xbe4afdb6	-0.19823346
17	0xbe61ce45	-0.22051342
18	0xbe469fff	-0.19396971
19	0xbd695bd6	-0.056972347
20	0x3e38ee76	0.18059716
21	0xbd15df21	-0.036589745
22	0x3d8cf190	0.06882012
23	0x3de26571	0.11054505
24	0xbcb5be2f	-0.022185413
25	0x3e4285d3	0.18996362
26	0x3e84b540	0.25919533
27	0xbe3e7b35	-0.18601687
28	0x3e21f980	0.15817833
29	0xbd8e7f52	-0.06957878
30	0xbc8f61f5	-0.017502764
31	0xbe8f2e25	-0.27964893
32	0x3e9710fd	0.2950515
33	0x3e548afe	0.20756146
34	0x3e2411a7	0.16022359
35	0xbe364da1	-0.1780305
36	0x3d52da87	0.051477935
37	0x3e7a37f3	0.24435405
38	0x3d8774c5	0.06614069
39	0xbeafc2b8	-0.34328246
40	0x3e60313c	0.21893781
41	0x3e91531b	0.28383717
42	0x3d9c28e8	0.0762499
43	0x3e5cd5ce	0.21565935
44	0x3e731419	0.23738135
45	0xbe89c394	-0.26907027
46	0xbd9cd6fa	-0.07658191
47	0x3e6c9faa	0.23107782
48	0xbd9f86c2	-0.07789375
49	0xbead160f	-0.33805892
50	0xbeaf3cec	-0.34226167
51	0x3e4fc391	0.20289446
52	0x3cef131e	0.02918392
53	0x3e320e9c	0.17388386
54	0xbe97c831	-0.2964492
55	0x3a0646ad	0.0005122226
56	0xbe8f8ba0	-0.28036213
57	0x3e243fcb	0.1603996
58	0xbe615141	-0.22003652
59	0xbe47aaf6	-0.1949881
60	0xbe66ce50	-0.2253964
61	0xbe6549ef	-0.22391485
62	0xbd1390bf	-0.036026713
63	0x3dad8831	0.08473242
64	0x3e7972e1	0.24360229
65	0x3eaea6b5	0.34111562
66	0xbdcef805	-0.101059
67	0x3d996bd1	0.074912675
68	0xbe15ef70	-0.1464212
69	0xbea85f7d	-0.32885352
70	0xbdb1bc89	-0.08678538
71	0x3e889dda	0.2668293
72	0x3df6c00c	0.12048349
73	0x38c259a4	9.267338e-05
74	0xbe94037d	-0.2890891
75	0xbe31a652	-0.17348602
76	0x3dc08f6a	0.09402354
77	0x3ea814ce	0.32828373
78	0xbc709db1	-0.014686034
79	0xbe5017dd	-0.20321603
80	0x3e1f9d45	0.15587337
81	0x3d1525e4	0.03641309
82	0x3e24d879	0.16098203
83	0xbd2f8a49	-0.04285649
84	0x3e4d4492	0.20045689
85	0x3e3efe03	0.18651585
86	0xbe6f05b9	-0.23342027
87	0x3d9dec71	0.07711113
88	0x3d861766	0.06547432
89	0x3e992ae4	0.29915535
90	0xbe91972b	-0.28435645
91	0x3e816c4a	0.2527793
92	0x3cb77d20	0.022398531
93	0x3d56986a	0.052391447
94	0x3dd6a198	0.1048004
95	0xbe9442f6	-0.28957337
